…
', 'warmup_updates': 16000, 'warmup_init_lr': 1e-06, 'lr': [0.001], 'min_lr': 1e-05, 't_mult': 2.0, 'lr_period_updates': 48000.0, 'lr_shrink': 0.75, 'max_update': 64000}, 'scoring': {'_name': 'bleu', 'pad': 1, 'eos': 2, 'unk': 3}, 'bpe': None, 'tokenizer': None, 'ema': {'_name': None, 'store_ema': False, 'ema_decay': 0.9999, 'ema_start_update': 0, 'ema_seed_model': None, 'ema_update_freq': 1, 'ema_fp32': False}}
GTLanguageModel(
  (decoder): GTDecoder(
    (dropout_module): FairseqDropout()
    (embed_tokens): AdaptiveInput(
      (embeddings): ModuleList(
        (0): Sequential(
          (0): Embedding(20000, 1024, padding_idx=1)
          (1): Linear(in_features=1024, out_features=1024, bias=False)
        )
        (1): Sequential(
          (0): Embedding(40000, 256)
          (1): Linear(in_features=256, out_features=1024, bias=False)
        )
        (2): Sequential(
          (0): Embedding(207744, 64)
          (1): Linear(in_features=64, out_features=1024, bias=False)
        )
      )
    )
    (layers): ModuleList(
      (0): GTDecoderLayer(
        (dropout_module): FairseqDropout()
        (self_attn): GTAttention(
          attention_dropout=0.1, num_windows=4, shuffle_type=half_gaussian, shuffle_size=0.2, keep_ratio=1.0
          (dropout_module): FairseqDropout()
          (k_proj): Linear(in_features=1024, out_features=1024, bias=True)
          (v_proj): Linear(in_features=1024, out_features=1024, bias=True)
          (q_proj): Linear(in_features=1024, out_features=1024, bias=True)
          (out_proj): Linear(in_features=1024, out_features=1024, bias=True)
        )
        (activation_dropout_module): FairseqDropout()
        (self_attn_layer_norm): FusedLayerNorm(torch.Size([1024]), eps=1e-05, elementwise_affine=True)
        (fc1): Linear(in_features=1024, out_features=4096, bias=True)
        (fc2): Linear(in_features=4096, out_features=1024, bias=True)
        (final_layer_norm): FusedLayerNorm(torch.Size([1024]), eps=1e-05, elementwise_affine=True)
      )
      (1): GTDecoderLayer(
        (dropout_module): FairseqDropout()
        (self_attn): GTAttention(
          attention_dropout=0.1, num_windows=4, shuffle_type=half_gaussian, shuffle_size=0.21000000000000002, keep_ratio=1.0
          (dropout_module): FairseqDropout()
          (k_proj): Linear(in_features=1024, out_features=1024, bias=True)
          (v_proj): Linear(in_features=1024, out_features=1024, bias=True)
          (q_proj): Linear(in_features=1024, out_features=1024, bias=True)
          (out_proj): Linear(in_features=1024, out_features=1024, bias=True)
        )
        (activation_dropout_module): FairseqDropout()
        (self_attn_layer_norm): FusedLayerNorm(torch.Size([1024]), eps=1e-05, elementwise_affine=True)
        (fc1): Linear(in_features=1024, out_features=4096, bias=True)
        (fc2): Linear(in_features=4096, out_features=1024, bias=True)
        (final_layer_norm): FusedLayerNorm(torch.Size([1024]), eps=1e-05, elementwise_affine=True)
      )
      (2): GTDecoderLayer(
        (dropout_module): FairseqDropout()
        (self_attn): GTAttention(
          attention_dropout=0.1, num_windows=4, shuffle_type=half_gaussian, shuffle_size=0.22, keep_ratio=1.0
          (dropout_module): FairseqDropout()
          (k_proj): Linear(in_features=1024, out_features=1024, bias=True)
          (v_proj): Linear(in_features=1024, out_features=1024, bias=True)
          (q_proj): Linear(in_features=1024, out_features=1024, bias=True)
          (out_proj): Linear(in_features=1024, out_features=1024, bias=True)
        )
        (activation_dropout_module): FairseqDropout()
        (self_attn_layer_norm): FusedLayerNorm(torch.Size([1024]), eps=1e-05, elementwise_affine=True)
        (fc1): Linear(in_features=1024, out_features=4096, bias=True)
        (fc2): Linear(in_features=4096, out_features=1024, bias=True)
        (final_layer_norm): FusedLayerNorm(torch.Size([1024]), eps=1e-05, elementwise_affine=True)
      )
      (3): GTDecoderLayer(
        (dropout_module): FairseqDropout()
        (self_attn): GTAttention(
          attention_dropout=0.1, num_windows=4, shuffle_type=half_gaussian, shuffle_size=0.23, keep_ratio=1.0
          (dropout_module): FairseqDropout()
          (k_proj): Linear(in_features=1024, out_features=1024, bias=True)
          (v_proj): Linear(in_features=1024, out_features=1024, bias=True)
          (q_proj): Linear(in_features=1024, out_features=1024, bias=True)
          (out_proj): Linear(in_features=1024, out_features=1024, bias=True)
        )
        (activation_dropout_module): FairseqDropout()
        (self_attn_layer_norm): FusedLayerNorm(torch.Size([1024]), eps=1e-05, elementwise_affine=True)
        (fc1): Linear(in_features=1024, out_features=4096, bias=True)
        (fc2): Linear(in_features=4096, out_features=1024, bias=True)
        (final_layer_norm): FusedLayerNorm(torch.Size([1024]), eps=1e-05, elementwise_affine=True)
      )
      (4): GTDecoderLayer(
        (dropout_module): FairseqDropout()
        (self_attn): GTAttention(
          attention_dropout=0.1, num_windows=4, shuffle_type=half_gaussian, shuffle_size=0.24000000000000002, keep_ratio=1.0
          (dropout_module): FairseqDropout()
          (k_proj): Linear(in_features=1024, out_features=1024, bias=True)
          (v_proj): Linear(in_features=1024, out_features=1024, bias=True)
          (q_proj): Linear(in_features=1024, out_features=1024, bias=True)
          (out_proj): Linear(in_features=1024, out_features=1024, bias=True)
        )
        (activation_dropout_module): FairseqDropout()
        (self_attn_layer_norm): FusedLayerNorm(torch.Size([1024]), eps=1e-05, elementwise_affine=True)
        (fc1): Linear(in_features=1024, out_features=4096, bias=True)
        (fc2): Linear(in_features=4096, out_features=1024, bias=True)
        (final_layer_norm): FusedLayerNorm(torch.Size([1024]), eps=1e-05, elementwise_affine=True)
      )
      (5): GTDecoderLayer(
        (dropout_module): FairseqDropout()
        (self_attn): GTAttention(
          attention_dropout=0.1, num_windows=4, shuffle_type=half_gaussian, shuffle_size=0.25, keep_ratio=1.0
          (dropout_module): FairseqDropout()
          (k_proj): Linear(in_features=1024, out_features=1024, bias=True)
          (v_proj): Linear(in_features=1024, out_features=1024, bias=True)
          (q_proj): Linear(in_features=1024, out_features=1024, bias=True)
          (out_proj): Linear(in_features=1024, out_features=1024, bias=True)
        )
        (activation_dropout_module): FairseqDropout()
        (self_attn_layer_norm): FusedLayerNorm(torch.Size([1024]), eps=1e-05, elementwise_affine=True)
        (fc1): Linear(in_features=1024, out_features=4096, bias=True)
        (fc2): Linear(in_features=4096, out_features=1024, bias=True)
        (final_layer_norm): FusedLayerNorm(torch.Size([1024]), eps=1e-05, elementwise_affine=True)
      )
      (6): GTDecoderLayer(
        (dropout_module): FairseqDropout()
        (self_attn): GTAttention(
          attention_dropout=0.1, num_windows=4, shuffle_type=half_gaussian, shuffle_size=0.26, keep_ratio=1.0
          (dropout_module): FairseqDropout()
          (k_proj): Linear(in_features=1024, out_features=1024, bias=True)
          (v_proj): Linear(in_features=1024, out_features=1024, bias=True)
          (q_proj): Linear(in_features=1024, out_features=1024, bias=True)
          (out_proj): Linear(in_features=1024, out_features=1024, bias=True)
        )
        (activation_dropout_module): FairseqDropout()
        (self_attn_layer_norm): FusedLayerNorm(torch.Size([1024]), eps=1e-05, elementwise_affine=True)
        (fc1): Linear(in_features=1024, out_features=4096, bias=True)
        (fc2): Linear(in_features=4096, out_features=1024, bias=True)
        (final_layer_norm): FusedLayerNorm(torch.Size([1024]), eps=1e-05, elementwise_affine=True)
      )
      (7): GTDecoderLayer(
        (dropout_module): FairseqDropout()
        (self_attn): GTAttention(
          attention_dropout=0.1, num_windows=4, shuffle_type=half_gaussian, shuffle_size=0.27, keep_ratio=1.0
          (dropout_module): FairseqDropout()
          (k_proj): Linear(in_features=1024, out_features=1024, bias=True)
          (v_proj): Linear(in_features=1024, out_features=1024, bias=True)
          (q_proj): Linear(in_features=1024, out_features=1024, bias=True)
          (out_proj): Linear(in_features=1024, out_features=1024, bias=True)
        )
        (activation_dropout_module): FairseqDropout()
        (self_attn_layer_norm): FusedLayerNorm(torch.Size([1024]), eps=1e-05, elementwise_affine=True)
        (fc1): Linear(in_features=1024, out_features=4096, bias=True)
        (fc2): Linear(in_features=4096, out_features=1024, bias=True)
        (final_layer_norm): FusedLayerNorm(torch.Size([1024]), eps=1e-05, elementwise_affine=True)
      )
      (8): GTDecoderLayer(
        (dropout_module): FairseqDropout()
        (self_attn): GTAttention(
          attention_dropout=0.1, num_windows=4, shuffle_type=half_gaussian, shuffle_size=0.28, keep_ratio=1.0
          (dropout_module): FairseqDropout()
          (k_proj): Linear(in_features=1024, out_features=1024, bias=True)
          (v_proj): Linear(in_features=1024, out_features=1024, bias=True)
          (q_proj): Linear(in_features=1024, out_features=1024, bias=True)
          (out_proj): Linear(in_features=1024, out_features=1024, bias=True)
        )
        (activation_dropout_module): FairseqDropout()
        (self_attn_layer_norm): FusedLayerNorm(torch.Size([1024]), eps=1e-05, elementwise_affine=True)
        (fc1): Linear(in_features=1024, out_features=4096, bias=True)
        (fc2): Linear(in_features=4096, out_features=1024, bias=True)
        (final_layer_norm): FusedLayerNorm(torch.Size([1024]), eps=1e-05, elementwise_affine=True)
      )
      (9): GTDecoderLayer(
        (dropout_module): FairseqDropout()
        (self_attn): GTAttention(
          attention_dropout=0.1, num_windows=4, shuffle_type=half_gaussian, shuffle_size=0.29000000000000004, keep_ratio=1.0
          (dropout_module): FairseqDropout()
          (k_proj): Linear(in_features=1024, out_features=1024, bias=True)
          (v_proj): Linear(in_features=1024, out_features=1024, bias=True)
          (q_proj): Linear(in_features=1024, out_features=1024, bias=True)
          (out_proj): Linear(in_features=1024, out_features=1024, bias=True)
        )
        (activation_dropout_module): FairseqDropout()
        (self_attn_layer_norm): FusedLayerNorm(torch.Size([1024]), eps=1e-05, elementwise_affine=True)
        (fc1): Linear(in_features=1024, out_features=4096, bias=True)
        (fc2): Linear(in_features=4096, out_features=1024, bias=True)
        (final_layer_norm): FusedLayerNorm(torch.Size([1024]), eps=1e-05, elementwise_affine=True)
      )
      (10): GTDecoderLayer(
        (dropout_module): FairseqDropout()
        (self_attn): GTAttention(
          attention_dropout=0.1, num_windows=4, shuffle_type=half_gaussian, shuffle_size=0.30000000000000004, keep_ratio=1.0
          (dropout_module): FairseqDropout()
          (k_proj): Linear(in_features=1024, out_features=1024, bias=True)
          (v_proj): Linear(in_features=1024, out_features=1024, bias=True)
          (q_proj): Linear(in_features=1024, out_features=1024, bias=True)
          (out_proj): Linear(in_features=1024, out_features=1024, bias=True)
        )
        (activation_dropout_module): FairseqDropout()
        (self_attn_layer_norm): FusedLayerNorm(torch.Size([1024]), eps=1e-05, elementwise_affine=True)
        (fc1): Linear(in_features=1024, out_features=4096, bias=True)
        (fc2): Linear(in_features=4096, out_features=1024, bias=True)
        (final_layer_norm): FusedLayerNorm(torch.Size([1024]), eps=1e-05, elementwise_affine=True)
      )
      (11): GTDecoderLayer(
        (dropout_module): FairseqDropout()
        (self_attn): GTAttention(
          attention_dropout=0.1, num_windows=4, shuffle_type=half_gaussian, shuffle_size=0.31, keep_ratio=1.0
          (dropout_module): FairseqDropout()
          (k_proj): Linear(in_features=1024, out_features=1024, bias=True)
          (v_proj): Linear(in_features=1024, out_features=1024, bias=True)
          (q_proj): Linear(in_features=1024, out_features=1024, bias=True)
          (out_proj): Linear(in_features=1024, out_features=1024, bias=True)
        )
        (activation_dropout_module): FairseqDropout()
        (self_attn_layer_norm): FusedLayerNorm(torch.Size([1024]), eps=1e-05, elementwise_affine=True)
        (fc1): Linear(in_features=1024, out_features=4096, bias=True)
        (fc2): Linear(in_features=4096, out_features=1024, bias=True)
        (final_layer_norm): FusedLayerNorm(torch.Size([1024]), eps=1e-05, elementwise_affine=True)
      )
      (12): GTDecoderLayer(
        (dropout_module): FairseqDropout()
        (self_attn): GTAttention(
          attention_dropout=0.1, num_windows=4, shuffle_type=half_gaussian, shuffle_size=0.32, keep_ratio=1.0
          (dropout_module): FairseqDropout()
          (k_proj): Linear(in_features=1024, out_features=1024, bias=True)
          (v_proj): Linear(in_features=1024, out_features=1024, bias=True)
          (q_proj): Linear(in_features=1024, out_features=1024, bias=True)
          (out_proj): Linear(in_features=1024, out_features=1024, bias=True)
        )
        (activation_dropout_module): FairseqDropout()
        (self_attn_layer_norm): FusedLayerNorm(torch.Size([1024]), eps=1e-05, elementwise_affine=True)
        (fc1): Linear(in_features=1024, out_features=4096, bias=True)
        (fc2): Linear(in_features=4096, out_features=1024, bias=True)
        (final_layer_norm): FusedLayerNorm(torch.Size([1024]), eps=1e-05, elementwise_affine=True)
      )
      (13): GTDecoderLayer(
        (dropout_module): FairseqDropout()
        (self_attn): GTAttention(
          attention_dropout=0.1, num_windows=4, shuffle_type=half_gaussian, shuffle_size=0.33, keep_ratio=1.0
          (dropout_module): FairseqDropout()
          (k_proj): Linear(in_features=1024, out_features=1024, bias=True)
          (v_proj): Linear(in_features=1024, out_features=1024, bias=True)
          (q_proj): Linear(in_features=1024, out_features=1024, bias=True)
          (out_proj): Linear(in_features=1024, out_features=1024, bias=True)
        )
        (activation_dropout_module): FairseqDropout()
        (self_attn_layer_norm): FusedLayerNorm(torch.Size([1024]), eps=1e-05, elementwise_affine=True)
        (fc1): Linear(in_features=1024, out_features=4096, bias=True)
        (fc2): Linear(in_features=4096, out_features=1024, bias=True)
        (final_layer_norm): FusedLayerNorm(torch.Size([1024]), eps=1e-05, elementwise_affine=True)
      )
      (14): GTDecoderLayer(
        (dropout_module): FairseqDropout()
        (self_attn): GTAttention(
          attention_dropout=0.1, num_windows=4, shuffle_type=half_gaussian, shuffle_size=0.34, keep_ratio=1.0
          (dropout_module): FairseqDropout()
          (k_proj): Linear(in_features=1024, out_features=1024, bias=True)
          (v_proj): Linear(in_features=1024, out_features=1024, bias=True)
          (q_proj): Linear(in_features=1024, out_features=1024, bias=True)
          (out_proj): Linear(in_features=1024, out_features=1024, bias=True)
        )
        (activation_dropout_module): FairseqDropout()
        (self_attn_layer_norm): FusedLayerNorm(torch.Size([1024]), eps=1e-05, elementwise_affine=True)
        (fc1): Linear(in_features=1024, out_features=4096, bias=True)
        (fc2): Linear(in_features=4096, out_features=1024, bias=True)
        (final_layer_norm): FusedLayerNorm(torch.Size([1024]), eps=1e-05, elementwise_affine=True)
      )
      (15): GTDecoderLayer(
        (dropout_module): FairseqDropout()
        (self_attn): GTAttention(
          attention_dropout=0.1, num_windows=4, shuffle_type=half_gaussian, shuffle_size=0.35, keep_ratio=1.0
          (dropout_module): FairseqDropout()
          (k_proj): Linear(in_features=1024, out_features=1024, bias=True)
          (v_proj): Linear(in_features=1024, out_features=1024, bias=True)
          (q_proj): Linear(in_features=1024, out_features=1024, bias=True)
          (out_proj): Linear(in_features=1024, out_features=1024, bias=True)
        )
        (activation_dropout_module): FairseqDropout()
        (self_attn_layer_norm): FusedLayerNorm(torch.Size([1024]), eps=1e-05, elementwise_affine=True)
        (fc1): Linear(in_features=1024, out_features=4096, bias=True)
        (fc2): Linear(in_features=4096, out_features=1024, bias=True)
        (final_layer_norm): FusedLayerNorm(torch.Size([1024]), eps=1e-05, elementwise_affine=True)
      )
    )
    (adaptive_softmax): AdaptiveSoftmax(
      (dropout_module): FairseqDropout()
      (lsm): LogSoftmax(dim=1)
      (head): TiedHeadModule(
        (word_proj): TiedLinear()
        (class_proj): Linear(in_features=1024, out_features=2, bias=False)
      )
      (tail): ModuleList(
        (0): Sequential(
          (0): TiedLinear()
          (1): Dropout(p=0.2, inplace=False)
          (2): TiedLinear()
        )
        (1): Sequential(
          (0): TiedLinear()
          (1): Dropout(p=0.2, inplace=False)
          (2): TiedLinear()
        )
      )
    )
  )
)
task: LanguageModelingTask
model: GTLanguageModel
…
